…
N kernels since it doesn't meet the criteria. It will use a generic GPU kernel as fallback when running on GPU.\n","WARNING:tensorflow:Layer lstm_52 will not use cuDNN kernels since it doesn't meet the criteria. It will use a generic GPU kernel as fallback when running on GPU.\n"]},{"output_type":"stream","name":"stdout","text":["Model: \"sequential_12\"\n","_________________________________________________________________\n"," Layer (type)                Output Shape              Param #   \n","=================================================================\n"," lstm_48 (LSTM)              (None, 3, 50)             13400     \n","                                                                 \n"," lstm_49 (LSTM)              (None, 3, 512)            1153024   \n","                                                                 \n"," dropout_48 (Dropout)        (None, 3, 512)            0         \n","                                                                 \n"," lstm_50 (LSTM)              (None, 3, 1024)           6295552   \n","                                                                 \n"," dropout_49 (Dropout)        (None, 3, 1024)           0         \n","                                                                 \n"," lstm_51 (LSTM)              (None, 3, 1024)           8392704   \n","                                                                 \n"," dropout_50 (Dropout)        (None, 3, 1024)           0         \n","                                                                 \n"," lstm_52 (LSTM)              (None, 32)                135296    \n","                                                                 \n"," dense_12 (Dense)            (None, 1)                 33        \n","                                                                 \n","=================================================================\n","Total params: 15990009 (61.00 MB)\n","Trainable params: 15990009 (61.00 MB)\n","Non-trainable params: 0 (0.00 Byte)\n","_________________________________________________________________\n"]}]},{"cell_type":"code","source":["early_stopping=tf.keras
…
